[34m[1mwandb: [0mInstall Weights & Biases for YOLOR logging with 'pip install wandb' (recommended)
Model(
  (model): Sequential(
    (0): Conv(
      (conv): Conv2d(3, 32, kernel_size=(3, 3), stride=(1, 1), padding=(1, 1), bias=False)
      (bn): USNorm(
        (norm): ModuleList(
          (0): BatchNorm2d(32, eps=0.001, momentum=0.03, affine=True, track_running_stats=True)
          (1): GroupBatchNorm2d(2, 32, eps=1e-05, affine=True)
        )
      )
      (act): SiLU()
    )
    (1): Conv(
      (conv): Conv2d(32, 64, kernel_size=(3, 3), stride=(2, 2), padding=(1, 1), bias=False)
      (bn): USNorm(
        (norm): ModuleList(
          (0): BatchNorm2d(64, eps=0.001, momentum=0.03, affine=True, track_running_stats=True)
          (1): GroupBatchNorm2d(2, 64, eps=1e-05, affine=True)
        )
      )
      (act): SiLU()
    )
    (2): Conv(
      (conv): Conv2d(64, 64, kernel_size=(3, 3), stride=(1, 1), padding=(1, 1), bias=False)
      (bn): USNorm(
        (norm): ModuleList(
          (0): BatchNorm2d(64, eps=0.001, momentum=0.03, affine=True, track_running_stats=True)
          (1): GroupBatchNorm2d(2, 64, eps=1e-05, affine=True)
        )
      )
      (act): SiLU()
    )
    (3): Conv(
      (conv): Conv2d(64, 128, kernel_size=(3, 3), stride=(2, 2), padding=(1, 1), bias=False)
      (bn): USNorm(
        (norm): ModuleList(
          (0): BatchNorm2d(128, eps=0.001, momentum=0.03, affine=True, track_running_stats=True)
          (1): GroupBatchNorm2d(2, 128, eps=1e-05, affine=True)
        )
      )
      (act): SiLU()
    )
    (4): Conv(
      (conv): Conv2d(128, 64, kernel_size=(1, 1), stride=(1, 1), bias=False)
      (bn): USNorm(
        (norm): ModuleList(
          (0): BatchNorm2d(64, eps=0.001, momentum=0.03, affine=True, track_running_stats=True)
          (1): GroupBatchNorm2d(2, 64, eps=1e-05, affine=True)
        )
      )
      (act): SiLU()
    )
    (5): Conv(
      (conv): Conv2d(128, 64, kernel_size=(1, 1), stride=(1, 1), bias=False)
      (bn): USNorm(
        (norm): ModuleList(
          (0): BatchNorm2d(64, eps=0.001, momentum=0.03, affine=True, track_running_stats=True)
          (1): GroupBatchNorm2d(2, 64, eps=1e-05, affine=True)
        )
      )
      (act): SiLU()
    )
    (6): Conv(
      (conv): Conv2d(64, 64, kernel_size=(3, 3), stride=(1, 1), padding=(1, 1), bias=False)
      (bn): USNorm(
        (norm): ModuleList(
          (0): BatchNorm2d(64, eps=0.001, momentum=0.03, affine=True, track_running_stats=True)
          (1): GroupBatchNorm2d(2, 64, eps=1e-05, affine=True)
        )
      )
      (act): SiLU()
    )
    (7): Conv(
      (conv): Conv2d(64, 64, kernel_size=(3, 3), stride=(1, 1), padding=(1, 1), bias=False)
      (bn): USNorm(
        (norm): ModuleList(
          (0): BatchNorm2d(64, eps=0.001, momentum=0.03, affine=True, track_running_stats=True)
          (1): GroupBatchNorm2d(2, 64, eps=1e-05, affine=True)
        )
      )
      (act): SiLU()
    )
    (8): Conv(
      (conv): Conv2d(64, 64, kernel_size=(3, 3), stride=(1, 1), padding=(1, 1), bias=False)
      (bn): USNorm(
        (norm): ModuleList(
          (0): BatchNorm2d(64, eps=0.001, momentum=0.03, affine=True, track_running_stats=True)
          (1): GroupBatchNorm2d(2, 64, eps=1e-05, affine=True)
        )
      )
      (act): SiLU()
    )
    (9): Conv(
      (conv): Conv2d(64, 64, kernel_size=(3, 3), stride=(1, 1), padding=(1, 1), bias=False)
      (bn): USNorm(
        (norm): ModuleList(
          (0): BatchNorm2d(64, eps=0.001, momentum=0.03, affine=True, track_running_stats=True)
          (1): GroupBatchNorm2d(2, 64, eps=1e-05, affine=True)
        )
      )
      (act): SiLU()
    )
    (10): Concat()
    (11): Conv(
      (conv): Conv2d(256, 256, kernel_size=(1, 1), stride=(1, 1), bias=False)
      (bn): USNorm(
        (norm): ModuleList(
          (0): BatchNorm2d(256, eps=0.001, momentum=0.03, affine=True, track_running_stats=True)
          (1): GroupBatchNorm2d(2, 256, eps=1e-05, affine=True)
        )
      )
      (act): SiLU()
    )
    (12): MP(
      (m): MaxPool2d(kernel_size=2, stride=2, padding=0, dilation=1, ceil_mode=False)
    )
    (13): Conv(
      (conv): Conv2d(256, 128, kernel_size=(1, 1), stride=(1, 1), bias=False)
      (bn): USNorm(
        (norm): ModuleList(
          (0): BatchNorm2d(128, eps=0.001, momentum=0.03, affine=True, track_running_stats=True)
          (1): GroupBatchNorm2d(2, 128, eps=1e-05, affine=True)
        )
      )
      (act): SiLU()
    )
    (14): Conv(
      (conv): Conv2d(256, 128, kernel_size=(1, 1), stride=(1, 1), bias=False)
      (bn): USNorm(
        (norm): ModuleList(
          (0): BatchNorm2d(128, eps=0.001, momentum=0.03, affine=True, track_running_stats=True)
          (1): GroupBatchNorm2d(2, 128, eps=1e-05, affine=True)
        )
      )
      (act): SiLU()
    )
    (15): Conv(
      (conv): Conv2d(128, 128, kernel_size=(3, 3), stride=(2, 2), padding=(1, 1), bias=False)
      (bn): USNorm(
        (norm): ModuleList(
          (0): BatchNorm2d(128, eps=0.001, momentum=0.03, affine=True, track_running_stats=True)
          (1): GroupBatchNorm2d(2, 128, eps=1e-05, affine=True)
        )
      )
      (act): SiLU()
    )
    (16): Concat()
    (17): Conv(
      (conv): Conv2d(256, 128, kernel_size=(1, 1), stride=(1, 1), bias=False)
      (bn): USNorm(
        (norm): ModuleList(
          (0): BatchNorm2d(128, eps=0.001, momentum=0.03, affine=True, track_running_stats=True)
          (1): GroupBatchNorm2d(2, 128, eps=1e-05, affine=True)
        )
      )
      (act): SiLU()
    )
    (18): Conv(
      (conv): Conv2d(256, 128, kernel_size=(1, 1), stride=(1, 1), bias=False)
      (bn): USNorm(
        (norm): ModuleList(
          (0): BatchNorm2d(128, eps=0.001, momentum=0.03, affine=True, track_running_stats=True)
          (1): GroupBatchNorm2d(2, 128, eps=1e-05, affine=True)
        )
      )
      (act): SiLU()
    )
    (19): Conv(
      (conv): Conv2d(128, 128, kernel_size=(3, 3), stride=(1, 1), padding=(1, 1), bias=False)
      (bn): USNorm(
        (norm): ModuleList(
          (0): BatchNorm2d(128, eps=0.001, momentum=0.03, affine=True, track_running_stats=True)
          (1): GroupBatchNorm2d(2, 128, eps=1e-05, affine=True)
        )
      )
      (act): SiLU()
    )
    (20): Conv(
      (conv): Conv2d(128, 128, kernel_size=(3, 3), stride=(1, 1), padding=(1, 1), bias=False)
      (bn): USNorm(
        (norm): ModuleList(
          (0): BatchNorm2d(128, eps=0.001, momentum=0.03, affine=True, track_running_stats=True)
          (1): GroupBatchNorm2d(2, 128, eps=1e-05, affine=True)
        )
      )
      (act): SiLU()
    )
    (21): Conv(
      (conv): Conv2d(128, 128, kernel_size=(3, 3), stride=(1, 1), padding=(1, 1), bias=False)
      (bn): USNorm(
        (norm): ModuleList(
          (0): BatchNorm2d(128, eps=0.001, momentum=0.03, affine=True, track_running_stats=True)
          (1): GroupBatchNorm2d(2, 128, eps=1e-05, affine=True)
        )
      )
      (act): SiLU()
    )
    (22): Conv(
      (conv): Conv2d(128, 128, kernel_size=(3, 3), stride=(1, 1), padding=(1, 1), bias=False)
      (bn): USNorm(
        (norm): ModuleList(
          (0): BatchNorm2d(128, eps=0.001, momentum=0.03, affine=True, track_running_stats=True)
          (1): GroupBatchNorm2d(2, 128, eps=1e-05, affine=True)
        )
      )
      (act): SiLU()
    )
    (23): Concat()
    (24): Conv(
      (conv): Conv2d(512, 512, kernel_size=(1, 1), stride=(1, 1), bias=False)
      (bn): USNorm(
        (norm): ModuleList(
          (0): BatchNorm2d(512, eps=0.001, momentum=0.03, affine=True, track_running_stats=True)
          (1): GroupBatchNorm2d(2, 512, eps=1e-05, affine=True)
        )
      )
      (act): SiLU()
    )
    (25): MP(
      (m): MaxPool2d(kernel_size=2, stride=2, padding=0, dilation=1, ceil_mode=False)
    )
    (26): Conv(
      (conv): Conv2d(512, 256, kernel_size=(1, 1), stride=(1, 1), bias=False)
      (bn): USNorm(
        (norm): ModuleList(
          (0): BatchNorm2d(256, eps=0.001, momentum=0.03, affine=True, track_running_stats=True)
          (1): GroupBatchNorm2d(2, 256, eps=1e-05, affine=True)
        )
      )
      (act): SiLU()
    )
    (27): Conv(
      (conv): Conv2d(512, 256, kernel_size=(1, 1), stride=(1, 1), bias=False)
      (bn): USNorm(
        (norm): ModuleList(
          (0): BatchNorm2d(256, eps=0.001, momentum=0.03, affine=True, track_running_stats=True)
          (1): GroupBatchNorm2d(2, 256, eps=1e-05, affine=True)
        )
      )
      (act): SiLU()
    )
    (28): Conv(
      (conv): Conv2d(256, 256, kernel_size=(3, 3), stride=(2, 2), padding=(1, 1), bias=False)
      (bn): USNorm(
        (norm): ModuleList(
          (0): BatchNorm2d(256, eps=0.001, momentum=0.03, affine=True, track_running_stats=True)
          (1): GroupBatchNorm2d(2, 256, eps=1e-05, affine=True)
        )
      )
      (act): SiLU()
    )
    (29): Concat()
    (30): Conv(
      (conv): Conv2d(512, 256, kernel_size=(1, 1), stride=(1, 1), bias=False)
      (bn): USNorm(
        (norm): ModuleList(
          (0): BatchNorm2d(256, eps=0.001, momentum=0.03, affine=True, track_running_stats=True)
          (1): GroupBatchNorm2d(2, 256, eps=1e-05, affine=True)
        )
      )
      (act): SiLU()
    )
    (31): Conv(
      (conv): Conv2d(512, 256, kernel_size=(1, 1), stride=(1, 1), bias=False)
      (bn): USNorm(
        (norm): ModuleList(
          (0): BatchNorm2d(256, eps=0.001, momentum=0.03, affine=True, track_running_stats=True)
          (1): GroupBatchNorm2d(2, 256, eps=1e-05, affine=True)
        )
      )
      (act): SiLU()
    )
    (32): Conv(
      (conv): Conv2d(256, 256, kernel_size=(3, 3), stride=(1, 1), padding=(1, 1), bias=False)
      (bn): USNorm(
        (norm): ModuleList(
          (0): BatchNorm2d(256, eps=0.001, momentum=0.03, affine=True, track_running_stats=True)
          (1): GroupBatchNorm2d(2, 256, eps=1e-05, affine=True)
        )
      )
      (act): SiLU()
    )
    (33): Conv(
      (conv): Conv2d(256, 256, kernel_size=(3, 3), stride=(1, 1), padding=(1, 1), bias=False)
      (bn): USNorm(
        (norm): ModuleList(
          (0): BatchNorm2d(256, eps=0.001, momentum=0.03, affine=True, track_running_stats=True)
          (1): GroupBatchNorm2d(2, 256, eps=1e-05, affine=True)
        )
      )
      (act): SiLU()
    )
    (34): Conv(
      (conv): Conv2d(256, 256, kernel_size=(3, 3), stride=(1, 1), padding=(1, 1), bias=False)
      (bn): USNorm(
        (norm): ModuleList(
          (0): BatchNorm2d(256, eps=0.001, momentum=0.03, affine=True, track_running_stats=True)
          (1): GroupBatchNorm2d(2, 256, eps=1e-05, affine=True)
        )
      )
      (act): SiLU()
    )
    (35): Conv(
      (conv): Conv2d(256, 256, kernel_size=(3, 3), stride=(1, 1), padding=(1, 1), bias=False)
      (bn): USNorm(
        (norm): ModuleList(
          (0): BatchNorm2d(256, eps=0.001, momentum=0.03, affine=True, track_running_stats=True)
          (1): GroupBatchNorm2d(2, 256, eps=1e-05, affine=True)
        )
      )
      (act): SiLU()
    )
    (36): Concat()
    (37): Conv(
      (conv): Conv2d(1024, 1024, kernel_size=(1, 1), stride=(1, 1), bias=False)
      (bn): USNorm(
        (norm): ModuleList(
          (0): BatchNorm2d(1024, eps=0.001, momentum=0.03, affine=True, track_running_stats=True)
          (1): GroupBatchNorm2d(2, 1024, eps=1e-05, affine=True)
        )
      )
      (act): SiLU()
    )
    (38): MP(
      (m): MaxPool2d(kernel_size=2, stride=2, padding=0, dilation=1, ceil_mode=False)
    )
    (39): Conv(
      (conv): Conv2d(1024, 512, kernel_size=(1, 1), stride=(1, 1), bias=False)
      (bn): USNorm(
        (norm): ModuleList(
          (0): BatchNorm2d(512, eps=0.001, momentum=0.03, affine=True, track_running_stats=True)
          (1): GroupBatchNorm2d(2, 512, eps=1e-05, affine=True)
        )
      )
      (act): SiLU()
    )
    (40): Conv(
      (conv): Conv2d(1024, 512, kernel_size=(1, 1), stride=(1, 1), bias=False)
      (bn): USNorm(
        (norm): ModuleList(
          (0): BatchNorm2d(512, eps=0.001, momentum=0.03, affine=True, track_running_stats=True)
          (1): GroupBatchNorm2d(2, 512, eps=1e-05, affine=True)
        )
      )
      (act): SiLU()
    )
    (41): Conv(
      (conv): Conv2d(512, 512, kernel_size=(3, 3), stride=(2, 2), padding=(1, 1), bias=False)
      (bn): USNorm(
        (norm): ModuleList(
          (0): BatchNorm2d(512, eps=0.001, momentum=0.03, affine=True, track_running_stats=True)
          (1): GroupBatchNorm2d(2, 512, eps=1e-05, affine=True)
        )
      )
      (act): SiLU()
    )
    (42): Concat()
    (43): Conv(
      (conv): Conv2d(1024, 256, kernel_size=(1, 1), stride=(1, 1), bias=False)
      (bn): USNorm(
        (norm): ModuleList(
          (0): BatchNorm2d(256, eps=0.001, momentum=0.03, affine=True, track_running_stats=True)
          (1): GroupBatchNorm2d(2, 256, eps=1e-05, affine=True)
        )
      )
      (act): SiLU()
    )
    (44): Conv(
      (conv): Conv2d(1024, 256, kernel_size=(1, 1), stride=(1, 1), bias=False)
      (bn): USNorm(
        (norm): ModuleList(
          (0): BatchNorm2d(256, eps=0.001, momentum=0.03, affine=True, track_running_stats=True)
          (1): GroupBatchNorm2d(2, 256, eps=1e-05, affine=True)
        )
      )
      (act): SiLU()
    )
    (45): Conv(
      (conv): Conv2d(256, 256, kernel_size=(3, 3), stride=(1, 1), padding=(1, 1), bias=False)
      (bn): USNorm(
        (norm): ModuleList(
          (0): BatchNorm2d(256, eps=0.001, momentum=0.03, affine=True, track_running_stats=True)
          (1): GroupBatchNorm2d(2, 256, eps=1e-05, affine=True)
        )
      )
      (act): SiLU()
    )
    (46): Conv(
      (conv): Conv2d(256, 256, kernel_size=(3, 3), stride=(1, 1), padding=(1, 1), bias=False)
      (bn): USNorm(
        (norm): ModuleList(
          (0): BatchNorm2d(256, eps=0.001, momentum=0.03, affine=True, track_running_stats=True)
          (1): GroupBatchNorm2d(2, 256, eps=1e-05, affine=True)
        )
      )
      (act): SiLU()
    )
    (47): Conv(
      (conv): Conv2d(256, 256, kernel_size=(3, 3), stride=(1, 1), padding=(1, 1), bias=False)
      (bn): USNorm(
        (norm): ModuleList(
          (0): BatchNorm2d(256, eps=0.001, momentum=0.03, affine=True, track_running_stats=True)
          (1): GroupBatchNorm2d(2, 256, eps=1e-05, affine=True)
        )
      )
      (act): SiLU()
    )
    (48): Conv(
      (conv): Conv2d(256, 256, kernel_size=(3, 3), stride=(1, 1), padding=(1, 1), bias=False)
      (bn): USNorm(
        (norm): ModuleList(
          (0): BatchNorm2d(256, eps=0.001, momentum=0.03, affine=True, track_running_stats=True)
          (1): GroupBatchNorm2d(2, 256, eps=1e-05, affine=True)
        )
      )
      (act): SiLU()
    )
    (49): Concat()
    (50): Conv(
      (conv): Conv2d(1024, 1024, kernel_size=(1, 1), stride=(1, 1), bias=False)
      (bn): USNorm(
        (norm): ModuleList(
          (0): BatchNorm2d(1024, eps=0.001, momentum=0.03, affine=True, track_running_stats=True)
          (1): GroupBatchNorm2d(2, 1024, eps=1e-05, affine=True)
        )
      )
      (act): SiLU()
    )
    (51): SPPCSPC(
      (cv1): Conv(
        (conv): Conv2d(1024, 512, kernel_size=(1, 1), stride=(1, 1), bias=False)
        (bn): USNorm(
          (norm): ModuleList(
            (0): BatchNorm2d(512, eps=0.001, momentum=0.03, affine=True, track_running_stats=True)
            (1): GroupBatchNorm2d(2, 512, eps=1e-05, affine=True)
          )
        )
        (act): SiLU()
      )
      (cv2): Conv(
        (conv): Conv2d(1024, 512, kernel_size=(1, 1), stride=(1, 1), bias=False)
        (bn): USNorm(
          (norm): ModuleList(
            (0): BatchNorm2d(512, eps=0.001, momentum=0.03, affine=True, track_running_stats=True)
            (1): GroupBatchNorm2d(2, 512, eps=1e-05, affine=True)
          )
        )
        (act): SiLU()
      )
      (cv3): Conv(
        (conv): Conv2d(512, 512, kernel_size=(3, 3), stride=(1, 1), padding=(1, 1), bias=False)
        (bn): USNorm(
          (norm): ModuleList(
            (0): BatchNorm2d(512, eps=0.001, momentum=0.03, affine=True, track_running_stats=True)
            (1): GroupBatchNorm2d(2, 512, eps=1e-05, affine=True)
          )
        )
        (act): SiLU()
      )
      (cv4): Conv(
        (conv): Conv2d(512, 512, kernel_size=(1, 1), stride=(1, 1), bias=False)
        (bn): USNorm(
          (norm): ModuleList(
            (0): BatchNorm2d(512, eps=0.001, momentum=0.03, affine=True, track_running_stats=True)
            (1): GroupBatchNorm2d(2, 512, eps=1e-05, affine=True)
          )
        )
        (act): SiLU()
      )
      (m): ModuleList(
        (0): MaxPool2d(kernel_size=5, stride=1, padding=2, dilation=1, ceil_mode=False)
        (1): MaxPool2d(kernel_size=9, stride=1, padding=4, dilation=1, ceil_mode=False)
        (2): MaxPool2d(kernel_size=13, stride=1, padding=6, dilation=1, ceil_mode=False)
      )
      (cv5): Conv(
        (conv): Conv2d(2048, 512, kernel_size=(1, 1), stride=(1, 1), bias=False)
        (bn): USNorm(
          (norm): ModuleList(
            (0): BatchNorm2d(512, eps=0.001, momentum=0.03, affine=True, track_running_stats=True)
            (1): GroupBatchNorm2d(2, 512, eps=1e-05, affine=True)
          )
        )
        (act): SiLU()
      )
      (cv6): Conv(
        (conv): Conv2d(512, 512, kernel_size=(3, 3), stride=(1, 1), padding=(1, 1), bias=False)
        (bn): USNorm(
          (norm): ModuleList(
            (0): BatchNorm2d(512, eps=0.001, momentum=0.03, affine=True, track_running_stats=True)
            (1): GroupBatchNorm2d(2, 512, eps=1e-05, affine=True)
          )
        )
        (act): SiLU()
      )
      (cv7): Conv(
        (conv): Conv2d(1024, 512, kernel_size=(1, 1), stride=(1, 1), bias=False)
        (bn): USNorm(
          (norm): ModuleList(
            (0): BatchNorm2d(512, eps=0.001, momentum=0.03, affine=True, track_running_stats=True)
            (1): GroupBatchNorm2d(2, 512, eps=1e-05, affine=True)
          )
        )
        (act): SiLU()
      )
    )
    (52): Conv(
      (conv): Conv2d(512, 256, kernel_size=(1, 1), stride=(1, 1), bias=False)
      (bn): USNorm(
        (norm): ModuleList(
          (0): BatchNorm2d(256, eps=0.001, momentum=0.03, affine=True, track_running_stats=True)
          (1): GroupBatchNorm2d(2, 256, eps=1e-05, affine=True)
        )
      )
      (act): SiLU()
    )
    (53): Upsample(scale_factor=2.0, mode='nearest')
    (54): Conv(
      (conv): Conv2d(1024, 256, kernel_size=(1, 1), stride=(1, 1), bias=False)
      (bn): USNorm(
        (norm): ModuleList(
          (0): BatchNorm2d(256, eps=0.001, momentum=0.03, affine=True, track_running_stats=True)
          (1): GroupBatchNorm2d(2, 256, eps=1e-05, affine=True)
        )
      )
      (act): SiLU()
    )
    (55): Concat()
    (56): Conv(
      (conv): Conv2d(512, 256, kernel_size=(1, 1), stride=(1, 1), bias=False)
      (bn): USNorm(
        (norm): ModuleList(
          (0): BatchNorm2d(256, eps=0.001, momentum=0.03, affine=True, track_running_stats=True)
          (1): GroupBatchNorm2d(2, 256, eps=1e-05, affine=True)
        )
      )
      (act): SiLU()
    )
    (57): Conv(
      (conv): Conv2d(512, 256, kernel_size=(1, 1), stride=(1, 1), bias=False)
      (bn): USNorm(
        (norm): ModuleList(
          (0): BatchNorm2d(256, eps=0.001, momentum=0.03, affine=True, track_running_stats=True)
          (1): GroupBatchNorm2d(2, 256, eps=1e-05, affine=True)
        )
      )
      (act): SiLU()
    )
    (58): Conv(
      (conv): Conv2d(256, 128, kernel_size=(3, 3), stride=(1, 1), padding=(1, 1), bias=False)
      (bn): USNorm(
        (norm): ModuleList(
          (0): BatchNorm2d(128, eps=0.001, momentum=0.03, affine=True, track_running_stats=True)
          (1): GroupBatchNorm2d(2, 128, eps=1e-05, affine=True)
        )
      )
      (act): SiLU()
    )
    (59): Conv(
      (conv): Conv2d(128, 128, kernel_size=(3, 3), stride=(1, 1), padding=(1, 1), bias=False)
      (bn): USNorm(
        (norm): ModuleList(
          (0): BatchNorm2d(128, eps=0.001, momentum=0.03, affine=True, track_running_stats=True)
          (1): GroupBatchNorm2d(2, 128, eps=1e-05, affine=True)
        )
      )
      (act): SiLU()
    )
    (60): Conv(
      (conv): Conv2d(128, 128, kernel_size=(3, 3), stride=(1, 1), padding=(1, 1), bias=False)
      (bn): USNorm(
        (norm): ModuleList(
          (0): BatchNorm2d(128, eps=0.001, momentum=0.03, affine=True, track_running_stats=True)
          (1): GroupBatchNorm2d(2, 128, eps=1e-05, affine=True)
        )
      )
      (act): SiLU()
    )
    (61): Conv(
      (conv): Conv2d(128, 128, kernel_size=(3, 3), stride=(1, 1), padding=(1, 1), bias=False)
      (bn): USNorm(
        (norm): ModuleList(
          (0): BatchNorm2d(128, eps=0.001, momentum=0.03, affine=True, track_running_stats=True)
          (1): GroupBatchNorm2d(2, 128, eps=1e-05, affine=True)
        )
      )
      (act): SiLU()
    )
    (62): Concat()
    (63): Conv(
      (conv): Conv2d(1024, 256, kernel_size=(1, 1), stride=(1, 1), bias=False)
      (bn): USNorm(
        (norm): ModuleList(
          (0): BatchNorm2d(256, eps=0.001, momentum=0.03, affine=True, track_running_stats=True)
          (1): GroupBatchNorm2d(2, 256, eps=1e-05, affine=True)
        )
      )
      (act): SiLU()
    )
    (64): Conv(
      (conv): Conv2d(256, 128, kernel_size=(1, 1), stride=(1, 1), bias=False)
      (bn): USNorm(
        (norm): ModuleList(
          (0): BatchNorm2d(128, eps=0.001, momentum=0.03, affine=True, track_running_stats=True)
          (1): GroupBatchNorm2d(2, 128, eps=1e-05, affine=True)
        )
      )
      (act): SiLU()
    )
    (65): Upsample(scale_factor=2.0, mode='nearest')
    (66): Conv(
      (conv): Conv2d(512, 128, kernel_size=(1, 1), stride=(1, 1), bias=False)
      (bn): USNorm(
        (norm): ModuleList(
          (0): BatchNorm2d(128, eps=0.001, momentum=0.03, affine=True, track_running_stats=True)
          (1): GroupBatchNorm2d(2, 128, eps=1e-05, affine=True)
        )
      )
      (act): SiLU()
    )
    (67): Concat()
    (68): Conv(
      (conv): Conv2d(256, 128, kernel_size=(1, 1), stride=(1, 1), bias=False)
      (bn): USNorm(
        (norm): ModuleList(
          (0): BatchNorm2d(128, eps=0.001, momentum=0.03, affine=True, track_running_stats=True)
          (1): GroupBatchNorm2d(2, 128, eps=1e-05, affine=True)
        )
      )
      (act): SiLU()
    )
    (69): Conv(
      (conv): Conv2d(256, 128, kernel_size=(1, 1), stride=(1, 1), bias=False)
      (bn): USNorm(
        (norm): ModuleList(
          (0): BatchNorm2d(128, eps=0.001, momentum=0.03, affine=True, track_running_stats=True)
          (1): GroupBatchNorm2d(2, 128, eps=1e-05, affine=True)
        )
      )
      (act): SiLU()
    )
    (70): Conv(
      (conv): Conv2d(128, 64, kernel_size=(3, 3), stride=(1, 1), padding=(1, 1), bias=False)
      (bn): USNorm(
        (norm): ModuleList(
          (0): BatchNorm2d(64, eps=0.001, momentum=0.03, affine=True, track_running_stats=True)
          (1): GroupBatchNorm2d(2, 64, eps=1e-05, affine=True)
        )
      )
      (act): SiLU()
    )
    (71): Conv(
      (conv): Conv2d(64, 64, kernel_size=(3, 3), stride=(1, 1), padding=(1, 1), bias=False)
      (bn): USNorm(
        (norm): ModuleList(
          (0): BatchNorm2d(64, eps=0.001, momentum=0.03, affine=True, track_running_stats=True)
          (1): GroupBatchNorm2d(2, 64, eps=1e-05, affine=True)
        )
      )
      (act): SiLU()
    )
    (72): Conv(
      (conv): Conv2d(64, 64, kernel_size=(3, 3), stride=(1, 1), padding=(1, 1), bias=False)
      (bn): USNorm(
        (norm): ModuleList(
          (0): BatchNorm2d(64, eps=0.001, momentum=0.03, affine=True, track_running_stats=True)
          (1): GroupBatchNorm2d(2, 64, eps=1e-05, affine=True)
        )
      )
      (act): SiLU()
    )
    (73): Conv(
      (conv): Conv2d(64, 64, kernel_size=(3, 3), stride=(1, 1), padding=(1, 1), bias=False)
      (bn): USNorm(
        (norm): ModuleList(
          (0): BatchNorm2d(64, eps=0.001, momentum=0.03, affine=True, track_running_stats=True)
          (1): GroupBatchNorm2d(2, 64, eps=1e-05, affine=True)
        )
      )
      (act): SiLU()
    )
    (74): Concat()
    (75): Conv(
      (conv): Conv2d(512, 128, kernel_size=(1, 1), stride=(1, 1), bias=False)
      (bn): USNorm(
        (norm): ModuleList(
          (0): BatchNorm2d(128, eps=0.001, momentum=0.03, affine=True, track_running_stats=True)
          (1): GroupBatchNorm2d(2, 128, eps=1e-05, affine=True)
        )
      )
      (act): SiLU()
    )
    (76): MP(
      (m): MaxPool2d(kernel_size=2, stride=2, padding=0, dilation=1, ceil_mode=False)
    )
    (77): Conv(
      (conv): Conv2d(128, 128, kernel_size=(1, 1), stride=(1, 1), bias=False)
      (bn): USNorm(
        (norm): ModuleList(
          (0): BatchNorm2d(128, eps=0.001, momentum=0.03, affine=True, track_running_stats=True)
          (1): GroupBatchNorm2d(2, 128, eps=1e-05, affine=True)
        )
      )
      (act): SiLU()
    )
    (78): Conv(
      (conv): Conv2d(128, 128, kernel_size=(1, 1), stride=(1, 1), bias=False)
      (bn): USNorm(
        (norm): ModuleList(
          (0): BatchNorm2d(128, eps=0.001, momentum=0.03, affine=True, track_running_stats=True)
          (1): GroupBatchNorm2d(2, 128, eps=1e-05, affine=True)
        )
      )
      (act): SiLU()
    )
    (79): Conv(
      (conv): Conv2d(128, 128, kernel_size=(3, 3), stride=(2, 2), padding=(1, 1), bias=False)
      (bn): USNorm(
        (norm): ModuleList(
          (0): BatchNorm2d(128, eps=0.001, momentum=0.03, affine=True, track_running_stats=True)
          (1): GroupBatchNorm2d(2, 128, eps=1e-05, affine=True)
        )
      )
      (act): SiLU()
    )
    (80): Concat()
    (81): Conv(
      (conv): Conv2d(512, 256, kernel_size=(1, 1), stride=(1, 1), bias=False)
      (bn): USNorm(
        (norm): ModuleList(
          (0): BatchNorm2d(256, eps=0.001, momentum=0.03, affine=True, track_running_stats=True)
          (1): GroupBatchNorm2d(2, 256, eps=1e-05, affine=True)
        )
      )
      (act): SiLU()
    )
    (82): Conv(
      (conv): Conv2d(512, 256, kernel_size=(1, 1), stride=(1, 1), bias=False)
      (bn): USNorm(
        (norm): ModuleList(
          (0): BatchNorm2d(256, eps=0.001, momentum=0.03, affine=True, track_running_stats=True)
          (1): GroupBatchNorm2d(2, 256, eps=1e-05, affine=True)
        )
      )
      (act): SiLU()
    )
    (83): Conv(
      (conv): Conv2d(256, 128, kernel_size=(3, 3), stride=(1, 1), padding=(1, 1), bias=False)
      (bn): USNorm(
        (norm): ModuleList(
          (0): BatchNorm2d(128, eps=0.001, momentum=0.03, affine=True, track_running_stats=True)
          (1): GroupBatchNorm2d(2, 128, eps=1e-05, affine=True)
        )
      )
      (act): SiLU()
    )
    (84): Conv(
      (conv): Conv2d(128, 128, kernel_size=(3, 3), stride=(1, 1), padding=(1, 1), bias=False)
      (bn): USNorm(
        (norm): ModuleList(
          (0): BatchNorm2d(128, eps=0.001, momentum=0.03, affine=True, track_running_stats=True)
          (1): GroupBatchNorm2d(2, 128, eps=1e-05, affine=True)
        )
      )
      (act): SiLU()
    )
    (85): Conv(
      (conv): Conv2d(128, 128, kernel_size=(3, 3), stride=(1, 1), padding=(1, 1), bias=False)
      (bn): USNorm(
        (norm): ModuleList(
          (0): BatchNorm2d(128, eps=0.001, momentum=0.03, affine=True, track_running_stats=True)
          (1): GroupBatchNorm2d(2, 128, eps=1e-05, affine=True)
        )
      )
      (act): SiLU()
    )
    (86): Conv(
      (conv): Conv2d(128, 128, kernel_size=(3, 3), stride=(1, 1), padding=(1, 1), bias=False)
      (bn): USNorm(
        (norm): ModuleList(
          (0): BatchNorm2d(128, eps=0.001, momentum=0.03, affine=True, track_running_stats=True)
          (1): GroupBatchNorm2d(2, 128, eps=1e-05, affine=True)
        )
      )
      (act): SiLU()
    )
    (87): Concat()
    (88): Conv(
      (conv): Conv2d(1024, 256, kernel_size=(1, 1), stride=(1, 1), bias=False)
      (bn): USNorm(
        (norm): ModuleList(
          (0): BatchNorm2d(256, eps=0.001, momentum=0.03, affine=True, track_running_stats=True)
          (1): GroupBatchNorm2d(2, 256, eps=1e-05, affine=True)
        )
      )
      (act): SiLU()
    )
    (89): MP(
      (m): MaxPool2d(kernel_size=2, stride=2, padding=0, dilation=1, ceil_mode=False)
    )
    (90): Conv(
      (conv): Conv2d(256, 256, kernel_size=(1, 1), stride=(1, 1), bias=False)
      (bn): USNorm(
        (norm): ModuleList(
          (0): BatchNorm2d(256, eps=0.001, momentum=0.03, affine=True, track_running_stats=True)
          (1): GroupBatchNorm2d(2, 256, eps=1e-05, affine=True)
        )
      )
      (act): SiLU()
    )
    (91): Conv(
      (conv): Conv2d(256, 256, kernel_size=(1, 1), stride=(1, 1), bias=False)
      (bn): USNorm(
        (norm): ModuleList(
          (0): BatchNorm2d(256, eps=0.001, momentum=0.03, affine=True, track_running_stats=True)
          (1): GroupBatchNorm2d(2, 256, eps=1e-05, affine=True)
        )
      )
      (act): SiLU()
    )
    (92): Conv(
      (conv): Conv2d(256, 256, kernel_size=(3, 3), stride=(2, 2), padding=(1, 1), bias=False)
      (bn): USNorm(
        (norm): ModuleList(
          (0): BatchNorm2d(256, eps=0.001, momentum=0.03, affine=True, track_running_stats=True)
          (1): GroupBatchNorm2d(2, 256, eps=1e-05, affine=True)
        )
      )
      (act): SiLU()
    )
    (93): Concat()
    (94): Conv(
      (conv): Conv2d(1024, 512, kernel_size=(1, 1), stride=(1, 1), bias=False)
      (bn): USNorm(
        (norm): ModuleList(
          (0): BatchNorm2d(512, eps=0.001, momentum=0.03, affine=True, track_running_stats=True)
          (1): GroupBatchNorm2d(2, 512, eps=1e-05, affine=True)
        )
      )
      (act): SiLU()
    )
    (95): Conv(
      (conv): Conv2d(1024, 512, kernel_size=(1, 1), stride=(1, 1), bias=False)
      (bn): USNorm(
        (norm): ModuleList(
          (0): BatchNorm2d(512, eps=0.001, momentum=0.03, affine=True, track_running_stats=True)
          (1): GroupBatchNorm2d(2, 512, eps=1e-05, affine=True)
        )
      )
      (act): SiLU()
    )
    (96): Conv(
      (conv): Conv2d(512, 256, kernel_size=(3, 3), stride=(1, 1), padding=(1, 1), bias=False)
      (bn): USNorm(
        (norm): ModuleList(
          (0): BatchNorm2d(256, eps=0.001, momentum=0.03, affine=True, track_running_stats=True)
          (1): GroupBatchNorm2d(2, 256, eps=1e-05, affine=True)
        )
      )
      (act): SiLU()
    )
    (97): Conv(
      (conv): Conv2d(256, 256, kernel_size=(3, 3), stride=(1, 1), padding=(1, 1), bias=False)
      (bn): USNorm(
        (norm): ModuleList(
          (0): BatchNorm2d(256, eps=0.001, momentum=0.03, affine=True, track_running_stats=True)
          (1): GroupBatchNorm2d(2, 256, eps=1e-05, affine=True)
        )
      )
      (act): SiLU()
    )
    (98): Conv(
      (conv): Conv2d(256, 256, kernel_size=(3, 3), stride=(1, 1), padding=(1, 1), bias=False)
      (bn): USNorm(
        (norm): ModuleList(
          (0): BatchNorm2d(256, eps=0.001, momentum=0.03, affine=True, track_running_stats=True)
          (1): GroupBatchNorm2d(2, 256, eps=1e-05, affine=True)
        )
      )
      (act): SiLU()
    )
    (99): Conv(
      (conv): Conv2d(256, 256, kernel_size=(3, 3), stride=(1, 1), padding=(1, 1), bias=False)
      (bn): USNorm(
        (norm): ModuleList(
          (0): BatchNorm2d(256, eps=0.001, momentum=0.03, affine=True, track_running_stats=True)
          (1): GroupBatchNorm2d(2, 256, eps=1e-05, affine=True)
        )
      )
      (act): SiLU()
    )
    (100): Concat()
    (101): Conv(
      (conv): Conv2d(2048, 512, kernel_size=(1, 1), stride=(1, 1), bias=False)
      (bn): USNorm(
        (norm): ModuleList(
          (0): BatchNorm2d(512, eps=0.001, momentum=0.03, affine=True, track_running_stats=True)
          (1): GroupBatchNorm2d(2, 512, eps=1e-05, affine=True)
        )
      )
      (act): SiLU()
    )
    (102): RepConv(
      (act): SiLU()
      (rbr_dense): Sequential(
        (0): Conv2d(128, 256, kernel_size=(3, 3), stride=(1, 1), padding=(1, 1), bias=False)
        (1): USNorm(
          (norm): ModuleList(
            (0): BatchNorm2d(256, eps=0.001, momentum=0.03, affine=True, track_running_stats=True)
            (1): GroupBatchNorm2d(2, 256, eps=1e-05, affine=True)
          )
        )
      )
      (rbr_1x1): Sequential(
        (0): Conv2d(128, 256, kernel_size=(1, 1), stride=(1, 1), bias=False)
        (1): USNorm(
          (norm): ModuleList(
            (0): BatchNorm2d(256, eps=0.001, momentum=0.03, affine=True, track_running_stats=True)
            (1): GroupBatchNorm2d(2, 256, eps=1e-05, affine=True)
          )
        )
      )
    )
    (103): RepConv(
      (act): SiLU()
      (rbr_dense): Sequential(
        (0): Conv2d(256, 512, kernel_size=(3, 3), stride=(1, 1), padding=(1, 1), bias=False)
        (1): USNorm(
          (norm): ModuleList(
            (0): BatchNorm2d(512, eps=0.001, momentum=0.03, affine=True, track_running_stats=True)
            (1): GroupBatchNorm2d(2, 512, eps=1e-05, affine=True)
          )
        )
      )
      (rbr_1x1): Sequential(
        (0): Conv2d(256, 512, kernel_size=(1, 1), stride=(1, 1), bias=False)
        (1): USNorm(
          (norm): ModuleList(
            (0): BatchNorm2d(512, eps=0.001, momentum=0.03, affine=True, track_running_stats=True)
            (1): GroupBatchNorm2d(2, 512, eps=1e-05, affine=True)
          )
        )
      )
    )
    (104): RepConv(
      (act): SiLU()
      (rbr_dense): Sequential(
        (0): Conv2d(512, 1024, kernel_size=(3, 3), stride=(1, 1), padding=(1, 1), bias=False)
        (1): USNorm(
          (norm): ModuleList(
            (0): BatchNorm2d(1024, eps=0.001, momentum=0.03, affine=True, track_running_stats=True)
            (1): GroupBatchNorm2d(2, 1024, eps=1e-05, affine=True)
          )
        )
      )
      (rbr_1x1): Sequential(
        (0): Conv2d(512, 1024, kernel_size=(1, 1), stride=(1, 1), bias=False)
        (1): USNorm(
          (norm): ModuleList(
            (0): BatchNorm2d(1024, eps=0.001, momentum=0.03, affine=True, track_running_stats=True)
            (1): GroupBatchNorm2d(2, 1024, eps=1e-05, affine=True)
          )
        )
      )
    )
    (105): IDetect(
      (m): ModuleList(
        (0): Conv2d(256, 255, kernel_size=(1, 1), stride=(1, 1))
        (1): Conv2d(512, 255, kernel_size=(1, 1), stride=(1, 1))
        (2): Conv2d(1024, 255, kernel_size=(1, 1), stride=(1, 1))
      )
      (ia): ModuleList(
        (0-2): 3 x ImplicitA()
      )
      (im): ModuleList(
        (0-2): 3 x ImplicitM()
      )
    )
  )
)

[34m[1mautoanchor: [0mAnalyzing anchors... anchors/target = 3.96, Best Possible Recall (BPR) = 0.9511. Attempting to improve anchors, please wait...
[34m[1mautoanchor: [0mWARNING: Extremely small objects found. 29915 of 849942 labels are < 3 pixels in size.
…
